…
":875,"user":{"displayName":"Sonsuz Döngü","photoUrl":"https://lh3.googleusercontent.com/a-/AOh14Gh8JxOCv8kuzuHPUCvdaIHYQiqPe-hc-2bBL5eTcg=s64","userId":"02790632025559719274"}},"colab":{"base_uri":"https://localhost:8080/","height":1000}},"source":["model.summary()"],"execution_count":0,"outputs":[{"output_type":"stream","text":["Model: \"sequential_1\"\n","_________________________________________________________________\n","Layer (type)                 Output Shape              Param #   \n","=================================================================\n","conv2d_1 (Conv2D)            (None, 100, 100, 32)      896       \n","_________________________________________________________________\n","activation_1 (Activation)    (None, 100, 100, 32)      0         \n","_________________________________________________________________\n","batch_normalization_1 (Batch (None, 100, 100, 32)      128       \n","_________________________________________________________________\n","max_pooling2d_1 (MaxPooling2 (None, 49, 49, 32)        0         \n","_________________________________________________________________\n","dropout_1 (Dropout)          (None, 49, 49, 32)        0         \n","_________________________________________________________________\n","conv2d_2 (Conv2D)            (None, 49, 49, 64)        18496     \n","_________________________________________________________________\n","activation_2 (Activation)    (None, 49, 49, 64)        0         \n","_________________________________________________________________\n","batch_normalization_2 (Batch (None, 49, 49, 64)        256       \n","_________________________________________________________________\n","conv2d_3 (Conv2D)            (None, 49, 49, 64)        36928     \n","_________________________________________________________________\n","activation_3 (Activation)    (None, 49, 49, 64)        0         \n","_________________________________________________________________\n","batch_normalization_3 (Batch (None, 49, 49, 64)        256       \n","_________________________________________________________________\n","max_pooling2d_2 (MaxPooling2 (None, 24, 24, 64)        0         \n","_________________________________________________________________\n","dropout_2 (Dropout)          (None, 24, 24, 64)        0         \n","_________________________________________________________________\n","conv2d_4 (Conv2D)            (None, 24, 24, 128)       73856     \n","_________________________________________________________________\n","activation_4 (Activation)    (None, 24, 24, 128)       0         \n","_________________________________________________________________\n","batch_normalization_4 (Batch (None, 24, 24, 128)       512       \n","_________________________________________________________________\n","conv2d_5 (Conv2D)            (None, 24, 24, 128)       147584    \n","_________________________________________________________________\n","activation_5 (Activation)    (None, 24, 24, 128)       0         \n","_________________________________________________________________\n","batch_normalization_5 (Batch (None, 24, 24, 128)       512       \n","_________________________________________________________________\n","max_pooling2d_3 (MaxPooling2 (None, 12, 12, 128)       0         \n","_________________________________________________________________\n","dropout_3 (Dropout)          (None, 12, 12, 128)       0         \n","_________________________________________________________________\n","flatten_1 (Flatten)          (None, 18432)             0         \n","_________________________________________________________________\n","dense_1 (Dense)              (None, 1024)              18875392  \n","_________________________________________________________________\n","activation_6 (Activation)    (None, 1024)              0         \n","_________________________________________________________________\n","batch_normalization_6 (Batch (None, 1024)              4096      \n","_________________________________________________________________\n","dropout_4 (Dropout)          (None, 1024)              0         \n","_________________________________________________________________\n","dense_2 (Dense)              (None, 9)                 9225      \n","_________________________________________________________________\n","activation_7 (Activation)    (None, 9)                 0         \n","=================================================================\n","Total params: 19,168,137\n","Trainable params: 19,165,257\n","Non-trainable params: 2,880\n","_________________________________________________________________\n"],"name":"stdout"}]},{"cell_type":"code","metadata":{"id":"inPLngHe4RbI","colab_type":"code","colab":{"base_uri":"https://localhost:8080/","height":34},"o
…
